ants_bees_compatible.onnx (onnx, 240887 bytes, 8 tensors)

fc.bias f4 [2]
000000 fe 19 38 bc 0f 40 8c 3c
       -0.011236666 0.01712039

conv1.weight_bias f4 [64]
000000 58 2e 66 3e e7 b3 1d 3f b8 5a 39 3c 33 4f 09 3e
       0.22478616 0.61602634 0.011313133 0.13409118
000010 51 5c 38 3e ed 69 17 3e d7 76 32 3e 49 d2 42 3e
       0.18003966 0.14786501 0.17428146 0.1902553
000020 7d cf 6d 3e 40 46 4c 3e e8 de 03 3e bb 9d 5b be
       0.23223682 0.19948673 0.12878 -0.21446888
000030 98 98 1a 3e 7c 6f 28 b3 54 3d 80 3e 83 27 51 3e
       0.15097272 -3.9216943e-08 0.2504679 0.20425229
000040 56 d7 0c 3f ed 63 57 3e 4b 0a 66 3e 07 49 f1 3e
       0.55016077 0.21034212 0.22464864 0.47126028
000050 bd 3a 73 3e 59 87 51 3e 13 7e 5d 3e 25 d9 27 3f
       0.23752876 0.20461787 0.21630125 0.6556571
000060 9d 5a 68 3e 29 f4 28 3f 34 22 53 3e 3d a1 45 3e
       0.22690816 0.6599756 0.20618516 0.19299789
000070 20 6f e2 3d 2e 3a a9 3e 43 14 fe 3d 62 d6 30 3d
       0.11056352 0.330522 0.12406208 0.0431732
000080 22 ee 45 3f 3f 3a 8a 3e a3 7f ac 3e d8 10 12 3f
       0.77316487 0.26997563 0.3369113 0.5705695
000090 9f a3 19 3e 83 dc 32 3e 31 8c 46 3e 4a b1 30 3e
       0.15003823 0.17466931 0.19389416 0.1725513
0000a0 c1 2f 4e 3f b9 2a 73 3e 31 eb de be 17 e5 58 3f
       0.80541617 0.23746766 -0.43538812 0.84724563
0000b0 b9 ab c2 be b4 3d 7e 3e eb 3e 39 3e 79 c8 a8 3e
       -0.3802164 0.24828225 0.18090408 0.32965448
0000c0 bc f7 90 be 2e 99 68 3e d8 08 86 3e b5 00 6c 3d
       -0.28314006 0.22714683 0.26178622 0.05761786
0000d0 01 0b 01 bf d1 6e 21 3e 76 3f 37 3e e0 f1 8f 3e
       -0.50407416 0.1576493 0.17895302 0.28114223
0000e0 a9 38 d4 3e d9 e9 c5 bd 71 29 a1 be be b2 cf bc
       0.41449478 -0.096637435 -0.3147693 -0.025353786
0000f0 8f 24 b5 3d cb b8 38 3e ed da 54 3f 64 74 80 3e
       0.088448636 0.18039243 0.83146554 0.250888

layer1.0.conv1.weight_bias f4 [64]
000000 9c bd 43 3f 6a 52 c4 3e c4 40 f3 be 1c a1 cc 3e
       0.76461196 0.38344127 -0.4751035 0.39966667
000010 52 1d aa 3e 52 26 e7 3e d7 62 5b 3e bf 97 d8 b3
       0.33225495 0.45146424 0.21424423 -1.0085886e-07
000020 1a 60 f8 be 2b 83 9a 3e 4c df b7 3e d0 42 9f be
       -0.4851082 0.30178198 0.3591255 -0.3110566
000030 66 9c 3e 3e 00 e9 b8 3e 09 d2 00 3f 5e 35 24 3e
       0.18614349 0.36115265 0.5032049 0.16035983
000040 19 74 c3 3e 5d eb 5f be eb 04 94 3e 36 b0 7f 3e
       0.38174513 -0.21867128 0.28910002 0.24969563
000050 fd c3 7e 3e 7d a5 f0 3d 30 23 7b 3e ae 2a 8d b3
       0.24879451 0.117503144 0.24525142 -6.5735875e-08
000060 08 99 ca 3e 8f 9f 90 3e 2a 89 3d 3e 1b 52 8a b3
       0.3956988 0.28246734 0.18509355 -6.441061e-08
000070 32 21 7f 3e e6 0e cc 3e e8 78 81 3e 3a 72 d6 be
       0.24915007 0.39855117 0.25287557 -0.41884023
000080 00 1e 5d bd 08 ce f8 3c ea 9b f8 3e d6 1e c8 3e
       -0.05398369 0.03037168 0.48556453 0.39086026
000090 44 fb ad 3e a5 da 7e 3e 88 61 49 3e 03 9e 19 be
       0.33980763 0.24888094 0.19666111 -0.15001683
0000a0 35 aa 36 3e df 98 e9 3d ae a1 c1 3e 69 fb 2f 3f
       0.17838366 0.11406111 0.37818664 0.68742996
0000b0 a0 78 8b 3e bb 4c 88 3e 1d 94 d7 3e 5d 5e 2a 3f
       0.27240467 0.2662104 0.4210519 0.66550237
0000c0 7e 0b c1 3d c7 0b ba 3e dc 14 41 3d b1 f7 98 3e
       0.0942602 0.3633711 0.047139034 0.29876474
0000d0 85 29 2b be 4d b9 ec 3e 68 25 5c be a0 af 18 3f
       -0.16715057 0.46235123 -0.21498644 0.5964298
0000e0 d7 b0 a5 b3 e1 8a b4 3e f7 67 b5 b3 d1 c4 a9 be
       -7.715578e-08 0.35262206 -8.4473804e-08 -0.33157972
0000f0 da bf a1 3d 65 36 12 be f1 98 cc 3e 54 99 16 3f
       0.07897921 -0.14278562 0.39960435 0.5882771

layer1.0.conv2.weight_bias f4 [64]
000000 b1 19 fa b3 95 2d 18 3d 82 fd 93 3e 22 43 49 3e
       -1.16462054e-07 0.037152845 0.2890435 0.19654515
000010 46 ee 91 3e 5c ef bf 3e ad 2e 99 3e be 34 43 3d
       0.285021 0.37487304 0.29918423 0.04765772
000020 b7 52 af be ca 1a 64 be ea a1 aa 3d 4d b7 8c 3e
       -0.34242794 -0.22275844 0.08331664 0.27483597
000030 a7 35 9e 3e cf 5e 62 be 6a 72 6e be 21 cf 47 3e
       0.30900308 -0.22106479 -0.23285833 0.19512607
000040 98 1b c5 3e f7 d3 60 be 68 83 be 3e de 35 be b5
       0.38497615 -0.21955858 0.3720963 -1.417178e-06
000050 27 97 9b bd 7d db ef 3d 42 cd 63 be 41 61 72 3e
       -0.075971894 0.11711786 -0.22246268 0.23669912
000060 b8 86 9f bd 10 d2 3f 3c fe 59 ee be 39 bc 58 be
       -0.077893674 0.011707798 -0.46553034 -0.21165551
000070 a9 53 4c 3e 31 2e 8d be 45 f5 d6 3d 6c c4 88 3e
       0.19953789 -0.27574304 0.10496 0.26712358
000080 76 14 96 3e ee 6c 11 3f 9b 11 09 bd dc 7c ce 3d
       0.29312485 0.5680684 -0.033464056 0.10082409
000090 04 5f a2 3e a3 e0 f2 3d 28 29 e7 bc b2 8a e0 bd
       0.31713116 0.11859252 -0.028217867 -0.10963954
0000a0 fc 5b 93 3e 1c bb 5e bd 4e 04 00 be c6 ad 8f 3e
       0.28781116 -0.05437766 -0.12501642 0.28062266
0000b0 09 00 b0 be 28 08 a1 be 53 e6 62 3e 9e 16 52 3f
       -0.34375027 -0.31451535 0.22158174 0.8206576
0000c0 f4 4e b7 3e 11 31 f7 3d 5c 26 ce 3e 94 d8 f4 3d
       0.35802424 0.120699055 0.4026364 0.119553715
0000d0 5f a9 92 be e2 41 c5 3e 8b 26 b2 3e 68 ad 42 3e
       -0.28644845 0.38526827 0.3479503 0.19011462
0000e0 c0 ee 83 3f 5c bf 3b bd e5 a3 81 bd 9e 04 c1 bb
       1.0307236 -0.04583679 -0.063300885 -0.005890443
0000f0 95 90 82 3e 7d 3b 4a b3 b0 0b e8 be 27 94 c8 bd
       0.25500932 -4.7085894e-08 -0.45321417 -0.09793883

layer1.1.conv1.weight_bias f4 [64]
000000 73 22 c5 3d c2 e3 c0 be 24 2e 17 be 5c ef 30 be
       0.09625711 -0.37673765 -0.14763695 -0.17278808
000010 08 91 80 be b0 dd 28 bd d8 ff 01 be ba 9a 72 be
       -0.2511065 -0.041227043 -0.12695253 -0.23691836
000020 b7 83 3d 3e 3e da 3d bf b7 55 b1 3e 1f ce 62 be
       0.18507276 -0.74161136 0.34635708 -0.22148941
000030 84 9d b1 bd 63 dc c4 b3 dc 4d 18 3e 27 53 cb bd
       -0.08672622 -9.167049e-08 0.14873451 -0.099279694
000040 8c fc f4 bc cf c3 b1 3c 60 9c 55 be 42 b0 66 be
       -0.02990558 0.021699814 -0.20860434 -0.22528175
000050 72 04 a5 3d c6 8e 28 3e e9 b9 43 3e 1c ac 8c bd
       0.080574885 0.16460714 0.19113888 -0.06868765
000060 28 2e 68 3c 00 56 8f bb 2c 12 50 3d 05 5f 91 3e
       0.014171161 -0.0043742657 0.05079858 0.28392807
000070 b4 57 87 bd 31 68 2e be 51 58 9b be 41 1e 16 bd
       -0.06608525 -0.17031933 -0.30340818 -0.036649946
000080 5a 1b db be 14 54 62 be 74 5d 0b bd 14 be f5 bd
       -0.42794305 -0.22102386 -0.03402467 -0.11999145
000090 a2 56 ab 3e 74 52 52 be b1 2f 98 be 00 fd 91 b8
       0.33464533 -0.20539266 -0.29723886 -6.961264e-05
0000a0 c8 cb cb be 83 9e 64 be 00 d9 28 be ed 3d 93 be
       -0.3980391 -0.22326092 -0.16489029 -0.28758183
0000b0 ba 36 8d 3e 48 03 16 b6 c5 12 a6 3e 02 55 db b3
       0.27580816 -2.2353652e-06 0.32436195 -1.0213445e-07
0000c0 9a 34 63 3e 28 41 ed bd 76 23 61 be 4c 79 31 be
       0.22188035 -0.11584693 -0.21986184 -0.17331427
0000d0 5e 8c b1 3e c8 88 18 be 00 d5 7a 3e b4 59 40 bd
       0.34677404 -0.14895928 0.24495316 -0.046960548
0000e0 6d 7c 81 b3 2c 9e fc bd 05 cc a3 3e 9d bd 65 3d
       -6.0296635e-08 -0.123348564 0.31991592 0.056089032
0000f0 78 f5 8f bd 6d 3d 91 3e 18 4a 65 bd 04 27 ad 3d
       -0.07029241 0.28367177 -0.055978864 0.08454707

layer1.1.conv2.weight_bias f4 [64]
000000 d2 cb bc 3e 4c c5 ce bc ba a1 bc 3d 3c 0e 4e 3e
       0.36874253 -0.025240563 0.092105344 0.20122617
000010 10 12 93 be fd 2c 98 3e a2 f5 f6 bc 4f 12 3b 3e
       -0.28724718 0.29721823 -0.030146424 0.18268703
000020 45 f6 e8 3e b8 0a 4c 3e c8 37 81 3d bc f8 0a be
       0.4550039 0.19925964 0.063094676 -0.13571447
000030 55 52 86 be 28 08 e9 bd d0 3d ca 3d 00 e1 3a bc
       -0.2623469 -0.11378509 0.09875071 -0.011406183
000040 ba a8 db bd b2 fd 7e be 85 94 03 3f 10 b0 7b 3c
       -0.107255414 -0.24901465 0.513985 0.015361801
000050 a6 75 60 3d 17 04 96 bd d8 c8 0e 3e 68 f5 f2 3c
       0.0547997 -0.07324999 0.13943803 0.029658034
000060 40 cc 48 3e 5a 14 b0 be 83 0a c3 3e 52 0f 1b be
       0.19609165 -0.34390527 0.38093957 -0.15142563
000070 d0 c1 cc 3e 8c 17 27 3e cb 67 1e be ad 00 6b 3d
       0.39991617 0.16317576 -0.15469281 0.05737369
000080 2e c6 bc 3d 13 54 9d 3e 96 e7 5a 3d df d5 c6 bb
       0.09217487 0.30728206 0.053443514 -0.006067976
000090 79 54 97 3e 80 6e 8a be 90 cf b7 3d a1 23 5d bd
       0.29556635 -0.2703743 0.08975136 -0.053989056
0000a0 54 3d c2 bd d4 4a ef 3c 7a b7 3d be f2 89 9f 3e
       -0.09484354 0.029210486 -0.18527022 0.3115993
0000b0 fd 12 28 bd 14 a2 ef bd 24 de 1f 3d f9 2d 21 3d
       -0.041033734 -0.11700836 0.03903021 0.039350484
0000c0 7a 63 71 3d 82 70 93 bd 62 f8 66 3e 67 53 0c 3e
       0.05893276 -0.071991935 0.22555688 0.1370369
0000d0 0f b8 ea 3e 91 fb c3 bd 9e 48 e3 3e 0e 71 3d bc
       0.4584355 -0.09569467 0.4439134 -0.011562599
0000e0 18 15 ab 3e 54 37 a2 3d 2c 82 e5 be 68 aa 07 3e
       0.3341453 0.07920709 -0.44825876 0.13248599
0000f0 6a 10 d1 3d 87 5f 22 3e 80 d5 0d 3e 22 56 a4 3d
       0.10208209 0.15856753 0.13850975 0.08024241

layer1.2.conv1.weight_bias f4 [64]
000000 ad d7 0c 3e 6c 53 e1 3d c7 5b cf bd 3c a9 06 be
       0.13754149 0.110022396 -0.10124927 -0.13150495
000010 ca 21 ae be 9a 26 a3 bd d4 8d 0c be a0 30 27 3d
       -0.34010154 -0.07966347 -0.13725978 0.040817857
000020 bd ce 97 3e fc 73 3e bd df 82 13 be b6 5f af be
       0.29649916 -0.04649733 -0.14405392 -0.3425271
000030 1c 87 18 3e e0 b0 d4 bd 7e db aa bd 30 91 a7 bc
       0.1489529 -0.10385299 -0.08342646 -0.020454973
000040 19 d2 ae 3f a3 15 e6 3d 80 98 8d 3c 3e 8d 76 be
       1.3657867 0.112345956 0.017284632 -0.24077317
000050 07 72 80 be 70 54 d8 3c a8 74 04 bc 80 82 49 3c
       -0.25086996 0.02640745 -0.008084454 0.01229918
000060 e0 4b e8 ba 8a 75 63 be 5c cd 11 bd b7 cd c3 bd
       -0.0017722808 -0.22212806 -0.035596237 -0.09560721
000070 ec 18 77 bc 00 ac 0e 3d 2e b2 cf bd 3e f8 2a be
       -0.015081625 0.034832 -0.10141407 -0.1669626
000080 dc 85 af 3d 10 77 03 3d 80 c0 41 bb a4 61 1a be
       0.085704535 0.03209597 -0.0029564202 -0.1507631
000090 3b 24 81 3e 61 56 ea bd f3 bd fe bd f7 d6 9f be
       0.25222954 -0.11442257 -0.12438574 -0.31218693
0000a0 1d 04 a1 bd 48 4a ed bb 0c bb 0b 3e 5f 5e 43 be
       -0.07862113 -0.007241521 0.13645571 -0.19078968
0000b0 9f 14 b9 3d 90 5d 67 bd 40 32 bb 3d 5c b5 76 3c
       0.09037136 -0.056485713 0.09140444 0.015057888
0000c0 43 b1 9e 3e b4 b6 a7 3d b8 5f a3 3d 79 4f 0f 3e
       0.30994615 0.08189145 0.07977241 0.1399516
0000d0 c0 38 02 bd 89 db 02 3e 0d de bc bd d2 53 90 bd
       -0.031792402 0.12779059 -0.0922204 -0.070472375
0000e0 80 06 64 bb a8 a6 d1 3c 8b e6 ab 3e 63 0a 65 be
       -0.0034793913 0.025592163 0.33574328 -0.22367243
0000f0 50 6f a7 3d 70 cb e6 3d 9c 7e 70 bd b8 30 52 bd
       0.08175528 0.112692714 -0.058714494 -0.051315993

layer1.2.conv2.weight_bias f4 [64]
000000 0e 25 8c bc 0a ae 03 bd c2 0b e3 3d 68 63 ee bb
       -0.017107513 -0.0321484 0.11086227 -0.0072750337
000010 da d7 11 3e 85 0c 03 be e1 a6 ef 3d 86 25 6b 3e
       0.14242497 -0.12797745 0.117017515 0.22963533
000020 e0 67 13 bc 01 ed d4 bd 98 56 b3 bd 98 34 45 3e
       -0.008996934 -0.103967674 -0.08756751 0.19258344
000030 b8 3b 9b bc ee ce fd 3c 40 36 18 ba d1 2b 45 3d
       -0.018949375 0.03098246 -0.0005806424 0.04813749
000040 87 55 6b bd 66 ca e1 3d 41 06 07 bd d7 68 89 bd
       -0.057454612 0.110249326 -0.03296495 -0.0670945
000050 de b9 a2 3d 30 f9 39 3e b6 93 7c bc 13 3a 9a bc
       0.079456076 0.18161464 -0.015416076 -0.01882652
000060 80 a6 aa 3b a4 b7 5a bd 00 fa 58 39 00 89 3e 39
       0.0052078366 -0.05339779 0.00020692497 0.00018170848
000070 21 0e ba bc 74 09 6a 3c 90 09 39 bd 1e 33 1c bd
       -0.022711815 0.01428448 -0.045175135 -0.038134687
000080 64 99 07 3e 52 13 d2 bd 60 5d 55 3d d2 b7 b4 3d
       0.13242108 -0.10257591 0.052091002 0.088241234
000090 0f 6b 40 3e 2f 87 15 3e 0f 14 81 3e a8 34 d0 bd
       0.1879084 0.1460235 0.25210616 -0.101662934
0000a0 90 b3 66 bc 5f 62 9a 3e f6 81 38 be 49 4a 80 3d
       -0.014080897 0.30153176 -0.18018326 0.06264169
0000b0 80 8e 14 bb 31 ee f0 bd 70 19 c7 3c fc 7b 5d 3d
       -0.0022667944 -0.117641814 0.024304122 0.05407332
0000c0 cc 12 99 bd 1d 04 e3 3d 30 4f ae 3d 28 54 b7 3c
       -0.07474288 0.11084769 0.085111976 0.022378996
0000d0 35 23 b5 3d 82 bb 45 bd 32 b5 5a bd 00 d0 8d bb
       0.08844606 -0.048274525 -0.053395458 -0.004327774
0000e0 b9 fd 29 bd 10 13 40 bd 02 2a 2c 3d c0 17 84 3c
       -0.041501734 -0.04689318 0.04203225 0.016124606
0000f0 6c 78 09 bf 48 b1 8d bb 24 f2 9b bc b4 38 1b 3e
       -0.53699374 -0.004324112 -0.01903636 0.1515835
