ants_bees.onnx (onnx, 239787 bytes, 8 tensors)

fc.bias f4 [2]
00000000: 00b2 21bc 06ed 3fbc
-0.009869099 -0.011714226

conv1.weight_bias f4 [64]
00000000: 283e 593e a3a3 223f e1ce aabd ad10 043e
00000010: 3d99 393e 16ed 183e 61fc 283e 1b8e 3d3e
00000020: 1207 673e ad5c 4b3e 3894 fb3d d529 a1be
00000030: 54df 393e 386f 28b3 f61c 773e 2772 4a3e
00000040: 34a4 1d3f 91d3 643e 7ea2 613e ac03 bd3e
00000050: 7ff1 753e 5dbe 553e eec2 673e 1276 2b3f
00000060: 7e34 6f3e 455b 223f 5b0d 5a3e 36d9 343e
00000070: 1ccd a23d f44f d33e 2d16 003e 5d7a 5a3d
00000080: 7894 5a3f cb34 923e c7a6 fc3e b65d e23e
00000090: af77 173e 32db 333e 7a1d 493e 9e98 2b3e
000000a0: b380 353f f8ff 933e 9d99 05bf 0fbf 423f
000000b0: 63a5 fbbe 1680 973e f0e4 3e3e 50f9 af3e
000000c0: d8e7 8cbe d486 743e 62a9 883e 1a75 743d
000000d0: f4c1 dcbe 1ae2 313e 6f56 343e a109 903e
000000e0: 8307 df3e 6859 6ebc 0fb4 92be afb9 35bd
000000f0: a9e0 b43d 6aa2 3b3e ddaf 6c3f 4564 833e
0.21215117 0.6353094 -0.0834024 0.12896986 0.18124862 0.14934191 0.16502525 0.1851124
0.22561291 0.19859572 0.1228413 -0.31477228 0.18151599 -3.92167e-08 0.24132141 0.19770108
0.6157868 0.22346331 0.22034642 0.36916864 0.24017905 0.20873399 0.22632954 0.66977036
0.23359868 0.63420516 0.21294157 0.17660984 0.07949278 0.41271937 0.1250846 0.05333935
0.85382795 0.28555903 0.4934599 0.4421212 0.1479175 0.17564085 0.1964015 0.16757438
0.70899504 0.28906226 -0.5218752 0.7607278 -0.49149618 0.2958991 0.1864202 0.34369898
-0.27520633 0.23879558 0.2669173 0.05968199 -0.43116724 0.17371407 0.17611097 0.28132346
0.43560418 -0.014547683 -0.28653 -0.044366535 0.08831913 0.18323675 0.92455846 0.25662437

layer1.0.conv1.weight_bias f4 [64]
00000000: f230 483f 57c6 c63e 348f ffbe ce5a d23e
00000010: 6633 ad3e 0a02 e43e 42c9 653e b997 d8b3
00000020: 6409 febe 2139 a23e 56f4 c03e 9a86 a3be
00000030: 04aa 3f3e d81d be3e be4b 043f e355 243e
00000040: 54d7 d53e c76e 61be 0ddf a43e 9295 8a3e
00000050: 8b0f 893e 6384 ff3d 65ca 803e ae2a 8db3
00000060: abcc e03e 8609 9b3e 105a 533e 1b52 8ab3
00000070: 7cba 863e 6457 d53e 554c 843e e957 e3be
00000080: 4849 68bd c85f e33c 250b e73e aa2d d63e
00000090: 54a3 b53e aebe 873e aaea 573e 3f37 22be
000000a0: 104b 4a3e 6dc1 e33d 671a c53e b9f1 343f
000000b0: f95e 973e 9ea2 963e 2c12 d43e b8af 2c3f
000000c0: 9825 d83d 6eeb c63e ba27 483d 41b0 a03e
000000d0: 798c 3dbe 9798 d43e c0ae 68be dd39 1c3f
000000e0: d7b0 a5b3 cd8f ba3e f467 b5b3 bb6a aabe
000000f0: 90f4 a33d aaef 13be ce34 d13e 67d7 163f
0.78199685 0.38823196 -0.49913943 0.41084903 0.33828276 0.44532806 0.22440055 -1.0085882e-07
-0.4961654 0.3168421 0.37686414 -0.3193863 0.187172 0.37132144 0.51678073 0.16048388
0.41765845 -0.22014914 0.32201424 0.27067238 0.2676967 0.12476423 0.25154415 -6.5735875e-08
0.4390615 0.30280703 0.20639825 -6.441061e-08 0.2631415 0.41668236 0.25839487 -0.44403008
-0.05671051 0.027755633 0.4512569 0.41831714 0.35476172 0.26512665 0.21085611 -0.15841387
0.19755197 0.111208774 0.38496706 0.7068134 0.29564646 0.29420942 0.41420114 0.67455626
0.105540454 0.38851494 0.04886601 0.3138447 -0.18510617 0.41522667 -0.22722912 0.6102579
-7.715578e-08 0.36437836 -8.447378e-08 -0.33284554 0.08005631 -0.14446893 0.408606 0.5892243

layer1.0.conv2.weight_bias f4 [64]
00000000: b319 fab3 7cc9 263d 3572 943e f40b 3f3e
00000010: 05f5 8f3e 2c37 c23e f682 993e 70b7 593d
00000020: c783 b0be 7ea9 60be d240 a13d 7859 8c3e
00000030: ecc7 9c3e 5a42 59be 30ef 72be c019 473e
00000040: 0e44 c33e feb6 5cbe 2c03 c33e df35 beb5
00000050: 73bd 80bd e81d f83d 297f 65be 8053 663e
00000060: d2d5 b0bd b015 8e3c 6cc9 e1be 8495 4cbe
00000070: 9a5c 393e b77d 86be b251 c23d 1d0a 853e
00000080: e5e4 933e 2650 143f 10a3 19bd 72be 993d
00000090: 9a1d a23e 91fc fe3d acff a5bc 6219 bdbd
000000a0: 644a 953e 04be 30bd a7b4 dfbd ea35 933e
000000b0: 148b adbe 2104 a1be c856 643e 9cce 4d3f
000000c0: 1a4a b53e 72fb bb3d e34c cf3e e817 fd3d
000000d0: d12b 84be de28 c03e 16c3 a83e 6843 443e
000000e0: 06f6 813f 48c1 64bd 6c65 a5bd fcbe bfbb
000000f0: 4f63 923e 7d3b 4ab3 24ca d8be 3503 aabd
-1.1646207e-07 0.040719494 0.28993383 0.18656904 0.28116623 0.37932718 0.29982728 0.053153455
-0.34475538 -0.21939656 0.078736916 0.2741201 0.30621278 -0.21216717 -0.23724055 0.19443417
0.3813786 -0.21554181 0.38088357 -1.4171782e-06 -0.062861346 0.12115079 -0.22411789 0.2249279
-0.08634533 0.017344326 -0.44098985 -0.1997891 0.18101731 -0.26267788 0.094882384 0.25984278
0.2888557 0.57934797 -0.037509024 0.07507028 0.3166321 0.12450517 -0.020263515 -0.09233357
0.29158318 -0.043149963 -0.109231286 0.2875207 -0.3389517 -0.31448463 0.2229873 0.80393386
0.35408098 0.09178819 0.40488347 0.123580754 -0.2581468 0.3753118 0.3296134 0.19166338
1.0153205 -0.05584839 -0.08075985 -0.0058516245 0.2859139 -4.7085894e-08 -0.4234172 -0.08301393

layer1.1.conv1.weight_bias f4 [64]
00000000: 351e c13d f956 bebe b31a 1abe 6cc8 22be
00000010: a1bf 79be 3827 23bd e7aa fcbd ee3e 77be
00000020: d80a 4d3e e0be 38bf 9181 b13e 194a 60be
00000030: 04a7 9cbd 63dc c4b3 40ce 1f3e 843d d3bd
00000040: 1816 bdbc 36dd aa3c b421 5abe 33dc 68be
00000050: a962 993d 35cb 293e f2b7 393e f875 8bbd
00000060: e0a0 4f3c c016 93bb 148c 363d 0492 903e
00000070: 7228 8dbd aaa1 2abe 8951 9bbe 5acc 08bd
00000080: 68ce d5be 2b13 67be f6bf f9bc 3e6f fdbd
00000090: 2d09 ae3e f08f 55be 4ae3 99be 7617 86bb
000000a0: bb8c c7be 63db 79be 28ae 2abe 626c 93be
000000b0: cb0d 8b3e 4c03 16b6 a3d4 a83e 0255 dbb3
000000c0: 6540 5d3e f61b e3bd 8336 62be 6c9d 30be
000000d0: 56da b03e 0a14 18be 564f 7d3e f826 72bd
000000e0: 6e7c 81b3 80f7 91bc 3817 a93e f048 773d
000000f0: 2cc0 8abd 922e 923e 581e 69bd bd63 a03d
0.0942959 -0.3717573 -0.15049247 -0.15896767 -0.24389507 -0.039832324 -0.123372845 -0.241451
0.20023668 -0.7216625 0.34669164 -0.21903266 -0.07649043 -9.167049e-08 0.15606022 -0.103144675
-0.023081824 0.020857435 -0.21301919 -0.2274025 0.07489521 0.16581424 0.18136576 -0.0680961
0.012672633 -0.004488796 0.044567183 0.282364 -0.0689248 -0.16663232 -0.30335644 -0.03339801
-0.41759038 -0.22565906 -0.030487042 -0.123747334 0.33991376 -0.20855689 -0.3005622 -0.004092152
-0.38974556 -0.24400096 -0.16667998 -0.28793627 0.2715896 -2.235366e-06 0.3297473 -1.0213445e-07
0.21606596 -0.110893175 -0.22091107 -0.17247552 0.34541577 -0.14851394 0.24737296 -0.059119195
-6.029664e-08 -0.017818213 0.33025527 0.060372293 -0.06774935 0.28551155 -0.056913704 0.078315236

layer1.1.conv2.weight_bias f4 [64]
00000000: 5af4 bf3e a052 d9bc dead c53d 5c34 543e
00000010: 4a14 8ebe 0a17 993e 891c 04bd 5c84 4e3e
00000020: 0351 ea3e 5c92 4c3e 00c8 7c3d 8647 0bbe
00000030: b848 85be 3edd 01be a1a6 ce3d 1866 33bc
00000040: 8aba e1bd 7c56 7cbe 245a 003f 103f 883c
00000050: 33b3 643d 81e3 90bd 13e8 153e 2283 f03c
00000060: b6f1 453e f453 aebe c4a5 bf3e e354 1abe
00000070: 1e9f cb3e f810 283e 855b 21be 3620 733d
00000080: 4631 a73d c1d2 913e ee8d 583d 036c 0fbc
00000090: cd82 953e d05e 88be dae0 d13d b953 50bd
000000a0: 1669 96bd de9f 3b3d a85d 4abe 62de 983e
000000b0: b4e1 a8bc 044c f1bd d002 833c 61b2 143d
000000c0: 0258 5f3d 168e 99bd ec52 663e 5763 0c3e
000000d0: 26ff da3e b5d1 d1bd 6c59 e33e 5efb 61bc
000000e0: 1e70 af3e 9a90 b73d 0444 e5be d2ce 083e
000000f0: 7642 cd3d b13e 203e 0a1a 0f3e bc14 9e3d
0.37491113 -0.026528656 0.09652303 0.20723099 -0.27749854 0.2990039 -0.032253776 0.20167679
0.45764932 0.19977707 0.061714172 -0.13601503 -0.26032043 -0.12682053 0.10090376 -0.010949634
-0.11021908 -0.24642366 0.50137544 0.016631633 0.05583496 -0.07074643 0.1463931 0.029359404
0.19330487 -0.34048426 0.37431157 -0.15071444 0.39769834 0.16412723 -0.15757568 0.05935689
0.08163695 0.28481105 0.05286973 -0.008753779 0.29201356 -0.26634836 0.10247965 -0.050861094
-0.07344262 0.045806758 -0.1976229 0.29857165 -0.020615436 -0.11782077 0.015992552 0.036302928
0.05452729 -0.07497804 0.2249257 0.1370977 0.42772788 -0.102450766 0.4440416 -0.013792841
0.34265226 0.089631274 -0.44778454 0.13360146 0.10022442 0.15648915 0.13974777 0.077187985

layer1.2.conv1.weight_bias f4 [64]
00000000: cb84 123e ac5e e83d 6b97 cabd d200 fbbd
00000010: 4ee9 aabe 1cfa a3bd 3273 08be 6880 253d
00000020: e2eb 943e 6099 edbc bdc7 13be 1e47 b0be
00000030: 348c 153e 32f5 d1bd ca84 abbd 1c79 a8bc
00000040: 2a6e 963f c234 e83d a4cd b43c e20c 72be
00000050: b2e2 7ebe 9238 113d 1025 c1bb 70d7 723c
00000060: e8da 233b 86bb 5cbe 56f9 0abd 7fb9 b3bd
00000070: f20b 83bc a8c0 1c3d 18d9 cbbd b593 2fbe
00000080: b38e b23d ce64 093d 0055 fe3a 3a2d 19be
00000090: ced5 7e3e 4e81 dfbd bfe2 fdbd 3582 99be
000000a0: 12c8 9bbd 1862 c2bb 1889 fa3d 4805 47be
000000b0: ca75 b03d ced0 7dbd 3c8c bc3d ccfb 223c
000000c0: ddd3 9b3e 1edf a43d 75b9 8e3d 60f3 0f3e
000000d0: f092 eabc 18c1 eb3d 23f4 b9bd 20f2 85bd
000000e0: d053 febb 0041 ad3c cf37 ac3e aa9f 66be
000000f0: fc67 9a3d 21ad e53d 7451 79bd dbf4 5cbd
0.14308469 0.11346182 -0.09892162 -0.12256016 -0.33381122 -0.08006689 -0.13325194 0.04040566
0.29086214 -0.029003799 -0.14431663 -0.34429258 0.14604264 -0.102518454 -0.08374937 -0.020565562
1.1752369 0.11338188 0.022070713 -0.23637727 -0.24891165 0.03545434 -0.005894311 0.014821872
0.0025002304 -0.2155591 -0.03392919 -0.08775615 -0.015996907 0.03826967 -0.09953517 -0.1714619
0.08718624 0.0335434 0.0019403994 -0.14958659 0.24886248 -0.10913335 -0.12396764 -0.29982153
-0.0760652 -0.005932104 0.1223318 -0.19435608 0.086162165 -0.06196671 0.09206435 0.009947728
0.30435076 0.08050369 0.06968967 0.14057684 -0.028634518 0.11511439 -0.090797685 -0.06540322
-0.007761456 0.021149158 0.3363633 -0.22521845 0.07539365 0.11214662 -0.060868695 -0.05394445

layer1.2.conv2.weight_bias f4 [64]
00000000: 1800 8dbc 552c 09bd ce6d e03d d8ae bbbb
00000010: 3eaa 153e b095 03be f170 f13d dc00 633e
00000020: 9822 0fbc c4c0 dbbd d699 b2bd c4e0 583e
00000030: 481b 77bc 3e08 ed3c 0011 81ba 279e 493d
00000040: 5ae2 6cbd 44f1 e43d 124c 06bd 8b25 88bd
00000050: 90c1 983d bc65 353e 3f9e 77bc d469 9abc
00000060: 008b ea3a 268b 5abd 00d3 a9b9 8036 ceb9
00000070: 390d b9bc 92e2 823c e554 38bd 9e8b 16bd
00000080: 80c8 073e 360d d2bd f814 5c3d cd0f ad3d
00000090: fb6f 433e 7488 163e 9649 813e 3b89 d0bd
000000a0: 261e 82bc dde6 a03e d4fa 39be cddf 823d
000000b0: b09b 38bb ae37 f2bd c42c e13c 6c3d 533d
000000c0: 183f 9bbd b727 e63d 80b8 ac3d 9085 a93c
000000d0: 6c4a ad3d cf52 42bd 12ed 5ebd 209c d0bb
000000e0: 70c6 24bd 6a10 41bd ed23 243d 658b 963c
000000f0: e759 0fbf 680a aebb 2cd0 9abc 44ea 153e
-0.017211959 -0.033489544 0.109584436 -0.00572763 0.14615723 -0.1285007 0.1178912 0.22168297
-0.008736275 -0.107301265 -0.08720748 0.21179491 -0.015082188 0.028934594 -0.0009846985 0.04922309
-0.057833053 0.1117883 -0.03278739 -0.06647786 0.07458794 0.1771459 -0.015113412 -0.01884929
0.0017894208 -0.05335536 -0.000323914 -0.00039331988 -0.022589313 0.015977178 -0.045002837 -0.036754243
0.13260078 -0.10256426 0.053730935 0.084502794 0.19085686 0.1470049 0.25251454 -0.10182425
-0.015883517 0.31426135 -0.1816209 0.06390343 -0.002816897 -0.11827026 0.027487166 0.05157225
-0.075803936 0.11238044 0.08433628 0.02069357 0.084614605 -0.047442254 -0.054425307 -0.006366268
-0.040228307 -0.047134794 0.040073324 0.018377015 -0.55996555 -0.005311299 -0.018898092 0.14640146
